…
 INFO: 02_transfer_learning_even_odd]: 
********************
[2021-11-26 12:12:21,561: INFO: 02_transfer_learning_even_odd]: >>>>> stage transfer learning started <<<<<
[2021-11-26 12:12:21,562: INFO: common]: yaml file: configs/config.yaml loaded successfully
[2021-11-26 12:12:23,504: INFO: 02_transfer_learning_even_odd]: loaded base model summary: 
Model: "sequential"
_________________________________________________________________
Layer (type)                 Output Shape              Param #   
=================================================================
inputlayer (Flatten)         (None, 784)               0         
_________________________________________________________________
hiddenlayer1 (Dense)         (None, 300)               235500    
_________________________________________________________________
leaky_re_lu (LeakyReLU)      (None, 300)               0         
_________________________________________________________________
hiddenlayer2 (Dense)         (None, 100)               30100     
_________________________________________________________________
leaky_re_lu_1 (LeakyReLU)    (None, 100)               0         
_________________________________________________________________
outputlayer (Dense)          (None, 10)                1010      
=================================================================
Total params: 266,610
Trainable params: 266,610
Non-trainable params: 0
_________________________________________________________________

[2021-11-26 12:12:23,535: INFO: 02_transfer_learning_even_odd]: transfer learning model summary: 
Model: "sequential"
_________________________________________________________________
Layer (type)                 Output Shape              Param #   
=================================================================
inputlayer (Flatten)         (None, 784)               0         
_________________________________________________________________
hiddenlayer1 (Dense)         (None, 300)               235500    
_________________________________________________________________
leaky_re_lu (LeakyReLU)      (None, 300)               0         
_________________________________________________________________
hiddenlayer2 (Dense)         (None, 100)               30100     
_________________________________________________________________
leaky_re_lu_1 (LeakyReLU)    (None, 100)               0         
_________________________________________________________________
output_layer (Dense)         (None, 2)                 202       
=================================================================
Total params: 265,802
Trainable params: 202
Non-trainable params: 265,600
_________________________________________________________________

[2021-11-26 12:13:02,861: INFO: 02_transfer_learning_even_odd]: base model is saved at artifacts\models\even_odd_model.h5
[2021-11-26 12:13:03,877: INFO: 02_transfer_learning_even_odd]: evaluation metrics [0.29125913977622986, 0.8797000050544739]
…
