[2021-11-25 15:33:09,084: INFO: 01_base_model_creation]: 
********************
[2021-11-25 15:33:09,085: INFO: 01_base_model_creation]: >>>>> stage creating base model started <<<<<
[2021-11-25 15:33:09,086: INFO: common]: yaml file: configs/config.yaml loaded successfully
[2021-11-25 15:33:15,655: INFO: 01_base_model_creation]: base model summary: 
Model: "sequential"
_________________________________________________________________
Layer (type)                 Output Shape              Param #   
=================================================================
inputlayer (Flatten)         (None, 784)               0         
_________________________________________________________________
hiddenlayer1 (Dense)         (None, 300)               235500    
_________________________________________________________________
leaky_re_lu (LeakyReLU)      (None, 300)               0         
_________________________________________________________________
hiddenlayer2 (Dense)         (None, 100)               30100     
_________________________________________________________________
leaky_re_lu_1 (LeakyReLU)    (None, 100)               0         
_________________________________________________________________
outputlayer (Dense)          (None, 10)                1010      
=================================================================
Total params: 266,610
Trainable params: 266,610
Non-trainable params: 0
_________________________________________________________________

[2021-11-25 15:34:07,616: INFO: common]: created directory at: artifacts\models
[2021-11-25 15:34:07,722: INFO: 01_base_model_creation]: base model is saved at artifacts\models\base_model.h5
…
